…
span class="mi">224</span><span class="p">),</span> <span class="n">device</span><span class="o">=</span><span class="s">'cpu'</span><span class="p">)</span>
</code></pre></div></div>

<p><br /></p>

<div class="language-plaintext highlighter-rouge"><div class="highlight"><pre class="highlight"><code>==========================================================================================
Layer (type:depth-idx)                   Output Shape              Param #
==========================================================================================
VGGnet                                   [2, 1000]                 --
├─Sequential: 1-1                        [2, 512, 7, 7]            --
│    └─Conv2d: 2-1                       [2, 64, 224, 224]         1,792
│    └─BatchNorm2d: 2-2                  [2, 64, 224, 224]         128
│    └─ReLU: 2-3                         [2, 64, 224, 224]         --
│    └─Conv2d: 2-4                       [2, 64, 224, 224]         36,928
│    └─BatchNorm2d: 2-5                  [2, 64, 224, 224]         128
│    └─ReLU: 2-6                         [2, 64, 224, 224]         --
│    └─MaxPool2d: 2-7                    [2, 64, 112, 112]         --
│    └─Conv2d: 2-8                       [2, 128, 112, 112]        73,856
│    └─BatchNorm2d: 2-9                  [2, 128, 112, 112]        256
│    └─ReLU: 2-10                        [2, 128, 112, 112]        --
│    └─Conv2d: 2-11                      [2, 128, 112, 112]        147,584
│    └─BatchNorm2d: 2-12                 [2, 128, 112, 112]        256
│    └─ReLU: 2-13                        [2, 128, 112, 112]        --
│    └─MaxPool2d: 2-14                   [2, 128, 56, 56]          --
│    └─Conv2d: 2-15                      [2, 256, 56, 56]          295,168
│    └─BatchNorm2d: 2-16                 [2, 256, 56, 56]          512
│    └─ReLU: 2-17                        [2, 256, 56, 56]          --
│    └─Conv2d: 2-18                      [2, 256, 56, 56]          590,080
│    └─BatchNorm2d: 2-19                 [2, 256, 56, 56]          512
│    └─ReLU: 2-20                        [2, 256, 56, 56]          --
│    └─Conv2d: 2-21                      [2, 256, 56, 56]          590,080
│    └─BatchNorm2d: 2-22                 [2, 256, 56, 56]          512
│    └─ReLU: 2-23                        [2, 256, 56, 56]          --
│    └─Conv2d: 2-24                      [2, 256, 56, 56]          590,080
│    └─BatchNorm2d: 2-25                 [2, 256, 56, 56]          512
│    └─ReLU: 2-26                        [2, 256, 56, 56]          --
│    └─MaxPool2d: 2-27                   [2, 256, 28, 28]          --
│    └─Conv2d: 2-28                      [2, 512, 28, 28]          1,180,160
│    └─BatchNorm2d: 2-29                 [2, 512, 28, 28]          1,024
│    └─ReLU: 2-30                        [2, 512, 28, 28]          --
│    └─Conv2d: 2-31                      [2, 512, 28, 28]          2,359,808
│    └─BatchNorm2d: 2-32                 [2, 512, 28, 28]          1,024
│    └─ReLU: 2-33                        [2, 512, 28, 28]          --
│    └─Conv2d: 2-34                      [2, 512, 28, 28]          2,359,808
│    └─BatchNorm2d: 2-35                 [2, 512, 28, 28]          1,024
│    └─ReLU: 2-36                        [2, 512, 28, 28]          --
│    └─Conv2d: 2-37                      [2, 512, 28, 28]          2,359,808
│    └─BatchNorm2d: 2-38                 [2, 512, 28, 28]          1,024
│    └─ReLU: 2-39                        [2, 512, 28, 28]          --
│    └─MaxPool2d: 2-40                   [2, 512, 14, 14]          --
│    └─Conv2d: 2-41                      [2, 512, 14, 14]          2,359,808
│    └─BatchNorm2d: 2-42                 [2, 512, 14, 14]          1,024
│    └─ReLU: 2-43                        [2, 512, 14, 14]          --
│    └─Conv2d: 2-44                      [2, 512, 14, 14]          2,359,808
│    └─BatchNorm2d: 2-45                 [2, 512, 14, 14]          1,024
│    └─ReLU: 2-46                        [2, 512, 14, 14]          --
│    └─Conv2d: 2-47                      [2, 512, 14, 14]          2,359,808
│    └─BatchNorm2d: 2-48                 [2, 512, 14, 14]          1,024
│    └─ReLU: 2-49                        [2, 512, 14, 14]          --
│    └─Conv2d: 2-50                      [2, 512, 14, 14]          2,359,808
│    └─BatchNorm2d: 2-51                 [2, 512, 14, 14]          1,024
│    └─ReLU: 2-52                        [2, 512, 14, 14]          --
│    └─MaxPool2d: 2-53                   [2, 512, 7, 7]            --
├─AdaptiveAvgPool2d: 1-2                 [2, 512, 7, 7]            --
├─Sequential: 1-3                        [2, 4096]                 --
│    └─Linear: 2-54                      [2, 4096]                 102,764,544
│    └─ReLU: 2-55                        [2, 4096]                 --
│    └─Dropout: 2-56                     [2, 4096]                 --
│    └─Linear: 2-57                      [2, 4096]                 16,781,312
│    └─ReLU: 2-58                        [2, 4096]                 --
│    └─Dropout: 2-59                     [2, 4096]                 --
│    └─ReLU: 2-60                        [2, 4096]                 --
├─Linear: 1-4                            [2, 1000]                 4,097,000
==========================================================================================
Total params: 143,678,248
Trainable params: 143,678,248
Non-trainable params: 0
Total mult-adds (G): 39.29
==========================================================================================
Input size (MB): 1.20
Forward/backward pass size (MB): 475.41
Params size (MB): 574.71
Estimated Total Size (MB): 1051.33
…
