…
span class="mi">224</span><span class="p">),</span> <span class="n">device</span><span class="o">=</span><span class="s">'cpu'</span><span class="p">)</span>
</code></pre></div></div>

<p><br /></p>

<div class="language-plaintext highlighter-rouge"><div class="highlight"><pre class="highlight"><code>==========================================================================================
Layer (type:depth-idx)                   Output Shape              Param #
==========================================================================================
ResNeXt                                  [2, 1000]                 --
├─Sequential: 1-1                        [2, 64, 112, 112]         --
│    └─Conv2d: 2-1                       [2, 64, 112, 112]         9,472
│    └─BatchNorm2d: 2-2                  [2, 64, 112, 112]         128
│    └─ReLU: 2-3                         [2, 64, 112, 112]         --
├─MaxPool2d: 1-2                         [2, 64, 56, 56]           --
├─Sequential: 1-3                        [2, 256, 28, 28]          --
│    └─Bottleneck: 2-4                   [2, 256, 28, 28]          --
│    │    └─Sequential: 3-1              [2, 256, 28, 28]          46,592
│    │    └─Sequential: 3-2              [2, 256, 28, 28]          17,152
│    │    └─ReLU: 3-3                    [2, 256, 28, 28]          --
│    └─Bottleneck: 2-5                   [2, 256, 28, 28]          --
│    │    └─Sequential: 3-4              [2, 256, 28, 28]          71,168
│    │    └─Identity: 3-5                [2, 256, 28, 28]          --
│    │    └─ReLU: 3-6                    [2, 256, 28, 28]          --
│    └─Bottleneck: 2-6                   [2, 256, 28, 28]          --
│    │    └─Sequential: 3-7              [2, 256, 28, 28]          71,168
│    │    └─Identity: 3-8                [2, 256, 28, 28]          --
│    │    └─ReLU: 3-9                    [2, 256, 28, 28]          --
├─Sequential: 1-4                        [2, 512, 14, 14]          --
│    └─Bottleneck: 2-7                   [2, 512, 14, 14]          --
│    │    └─Sequential: 3-10             [2, 512, 14, 14]          217,088
│    │    └─Sequential: 3-11             [2, 512, 14, 14]          132,608
│    │    └─ReLU: 3-12                   [2, 512, 14, 14]          --
│    └─Bottleneck: 2-8                   [2, 512, 14, 14]          --
│    │    └─Sequential: 3-13             [2, 512, 14, 14]          282,624
│    │    └─Identity: 3-14               [2, 512, 14, 14]          --
│    │    └─ReLU: 3-15                   [2, 512, 14, 14]          --
│    └─Bottleneck: 2-9                   [2, 512, 14, 14]          --
│    │    └─Sequential: 3-16             [2, 512, 14, 14]          282,624
│    │    └─Identity: 3-17               [2, 512, 14, 14]          --
│    │    └─ReLU: 3-18                   [2, 512, 14, 14]          --
│    └─Bottleneck: 2-10                  [2, 512, 14, 14]          --
│    │    └─Sequential: 3-19             [2, 512, 14, 14]          282,624
│    │    └─Identity: 3-20               [2, 512, 14, 14]          --
│    │    └─ReLU: 3-21                   [2, 512, 14, 14]          --
├─Sequential: 1-5                        [2, 1024, 7, 7]           --
│    └─Bottleneck: 2-11                  [2, 1024, 7, 7]           --
│    │    └─Sequential: 3-22             [2, 1024, 7, 7]           864,256
│    │    └─Sequential: 3-23             [2, 1024, 7, 7]           527,360
│    │    └─ReLU: 3-24                   [2, 1024, 7, 7]           --
│    └─Bottleneck: 2-12                  [2, 1024, 7, 7]           --
│    │    └─Sequential: 3-25             [2, 1024, 7, 7]           1,126,400
│    │    └─Identity: 3-26               [2, 1024, 7, 7]           --
│    │    └─ReLU: 3-27                   [2, 1024, 7, 7]           --
│    └─Bottleneck: 2-13                  [2, 1024, 7, 7]           --
│    │    └─Sequential: 3-28             [2, 1024, 7, 7]           1,126,400
│    │    └─Identity: 3-29               [2, 1024, 7, 7]           --
│    │    └─ReLU: 3-30                   [2, 1024, 7, 7]           --
│    └─Bottleneck: 2-14                  [2, 1024, 7, 7]           --
│    │    └─Sequential: 3-31             [2, 1024, 7, 7]           1,126,400
│    │    └─Identity: 3-32               [2, 1024, 7, 7]           --
│    │    └─ReLU: 3-33                   [2, 1024, 7, 7]           --
│    └─Bottleneck: 2-15                  [2, 1024, 7, 7]           --
│    │    └─Sequential: 3-34             [2, 1024, 7, 7]           1,126,400
│    │    └─Identity: 3-35               [2, 1024, 7, 7]           --
│    │    └─ReLU: 3-36                   [2, 1024, 7, 7]           --
│    └─Bottleneck: 2-16                  [2, 1024, 7, 7]           --
│    │    └─Sequential: 3-37             [2, 1024, 7, 7]           1,126,400
│    │    └─Identity: 3-38               [2, 1024, 7, 7]           --
│    │    └─ReLU: 3-39                   [2, 1024, 7, 7]           --
├─Sequential: 1-6                        [2, 2048, 4, 4]           --
│    └─Bottleneck: 2-17                  [2, 2048, 4, 4]           --
│    │    └─Sequential: 3-40             [2, 2048, 4, 4]           3,448,832
│    │    └─Sequential: 3-41             [2, 2048, 4, 4]           2,103,296
│    │    └─ReLU: 3-42                   [2, 2048, 4, 4]           --
│    └─Bottleneck: 2-18                  [2, 2048, 4, 4]           --
│    │    └─Sequential: 3-43             [2, 2048, 4, 4]           4,497,408
│    │    └─Identity: 3-44               [2, 2048, 4, 4]           --
│    │    └─ReLU: 3-45                   [2, 2048, 4, 4]           --
│    └─Bottleneck: 2-19                  [2, 2048, 4, 4]           --
│    │    └─Sequential: 3-46             [2, 2048, 4, 4]           4,497,408
│    │    └─Identity: 3-47               [2, 2048, 4, 4]           --
│    │    └─ReLU: 3-48                   [2, 2048, 4, 4]           --
├─AdaptiveAvgPool2d: 1-7                 [2, 2048, 1, 1]           --
├─Linear: 1-8                            [2, 1000]                 2,049,000
==========================================================================================
Total params: 25,032,808
Trainable params: 25,032,808
Non-trainable params: 0
Total mult-adds (G): 2.44
==========================================================================================
Input size (MB): 1.20
Forward/backward pass size (MB): 145.72
Params size (MB): 100.13
Estimated Total Size (MB): 247.05
…
