…
><span class="p">),</span> <span class="n">device</span><span class="o">=</span><span class="s">'cpu'</span><span class="p">)</span>
</code></pre></div></div>

<div class="language-plaintext highlighter-rouge"><div class="highlight"><pre class="highlight"><code>====================================================================================================
Layer (type:depth-idx)                             Output Shape              Param #
====================================================================================================
MobileNetV3                                        [2, 1000]                 --
├─Sequential: 1-1                                  [2, 16, 112, 112]         --
│    └─Conv2d: 2-1                                 [2, 16, 112, 112]         432
│    └─BatchNorm2d: 2-2                            [2, 16, 112, 112]         32
│    └─Hardswish: 2-3                              [2, 16, 112, 112]         --
├─Sequential: 1-2                                  [2, 160, 7, 7]            --
│    └─InvResBlock: 2-4                            [2, 16, 112, 112]         --
│    │    └─Sequential: 3-1                        [2, 16, 112, 112]         464
│    └─InvResBlock: 2-5                            [2, 24, 56, 56]           --
│    │    └─Sequential: 3-2                        [2, 24, 56, 56]           3,440
│    └─InvResBlock: 2-6                            [2, 24, 56, 56]           --
│    │    └─Sequential: 3-3                        [2, 24, 56, 56]           4,440
│    └─InvResBlock: 2-7                            [2, 40, 28, 28]           --
│    │    └─Sequential: 3-4                        [2, 40, 28, 28]           9,458
│    └─InvResBlock: 2-8                            [2, 40, 28, 28]           --
│    │    └─Sequential: 3-5                        [2, 40, 28, 28]           20,510
│    └─InvResBlock: 2-9                            [2, 40, 28, 28]           --
│    │    └─Sequential: 3-6                        [2, 40, 28, 28]           20,510
│    └─InvResBlock: 2-10                           [2, 80, 14, 14]           --
│    │    └─Sequential: 3-7                        [2, 80, 14, 14]           32,080
│    └─InvResBlock: 2-11                           [2, 80, 14, 14]           --
│    │    └─Sequential: 3-8                        [2, 80, 14, 14]           34,760
│    └─InvResBlock: 2-12                           [2, 80, 14, 14]           --
│    │    └─Sequential: 3-9                        [2, 80, 14, 14]           31,992
│    └─InvResBlock: 2-13                           [2, 80, 14, 14]           --
│    │    └─Sequential: 3-10                       [2, 80, 14, 14]           31,992
│    └─InvResBlock: 2-14                           [2, 112, 14, 14]          --
│    │    └─Sequential: 3-11                       [2, 112, 14, 14]          214,424
│    └─InvResBlock: 2-15                           [2, 112, 14, 14]          --
│    │    └─Sequential: 3-12                       [2, 112, 14, 14]          386,120
│    └─InvResBlock: 2-16                           [2, 160, 7, 7]            --
│    │    └─Sequential: 3-13                       [2, 160, 7, 7]            429,224
│    └─InvResBlock: 2-17                           [2, 160, 7, 7]            --
│    │    └─Sequential: 3-14                       [2, 160, 7, 7]            797,360
│    └─InvResBlock: 2-18                           [2, 160, 7, 7]            --
│    │    └─Sequential: 3-15                       [2, 160, 7, 7]            797,360
├─Sequential: 1-3                                  [2, 960, 7, 7]            --
│    └─Conv2d: 2-19                                [2, 960, 7, 7]            153,600
│    └─BatchNorm2d: 2-20                           [2, 960, 7, 7]            1,920
│    └─Hardswish: 2-21                             [2, 960, 7, 7]            --
├─AdaptiveAvgPool2d: 1-4                           [2, 960, 1, 1]            --
├─Sequential: 1-5                                  [2, 1000]                 --
│    └─Linear: 2-22                                [2, 1280]                 1,230,080
│    └─Hardswish: 2-23                             [2, 1280]                 --
│    └─Dropout: 2-24                               [2, 1280]                 --
│    └─Linear: 2-25                                [2, 1000]                 1,281,000
====================================================================================================
Total params: 5,481,198
Trainable params: 5,481,198
Non-trainable params: 0
Total mult-adds (M): 433.24
====================================================================================================
Input size (MB): 1.20
Forward/backward pass size (MB): 140.91
Params size (MB): 21.92
Estimated Total Size (MB): 164.04
…
><span class="p">),</span> <span class="n">device</span><span class="o">=</span><span class="s">'cpu'</span><span class="p">)</span>
</code></pre></div></div>

<div class="language-plaintext highlighter-rouge"><div class="highlight"><pre class="highlight"><code>====================================================================================================
Layer (type:depth-idx)                             Output Shape              Param #
====================================================================================================
MobileNetV3                                        [2, 1000]                 --
├─Sequential: 1-1                                  [2, 16, 112, 112]         --
│    └─Conv2d: 2-1                                 [2, 16, 112, 112]         432
│    └─BatchNorm2d: 2-2                            [2, 16, 112, 112]         32
│    └─Hardswish: 2-3                              [2, 16, 112, 112]         --
├─Sequential: 1-2                                  [2, 96, 7, 7]             --
│    └─InvResBlock: 2-4                            [2, 16, 56, 56]           --
│    │    └─Sequential: 3-1                        [2, 16, 56, 56]           612
│    └─InvResBlock: 2-5                            [2, 24, 28, 28]           --
│    │    └─Sequential: 3-2                        [2, 24, 28, 28]           3,864
│    └─InvResBlock: 2-6                            [2, 24, 28, 28]           --
│    │    └─Sequential: 3-3                        [2, 24, 28, 28]           5,416
│    └─InvResBlock: 2-7                            [2, 40, 14, 14]           --
│    │    └─Sequential: 3-4                        [2, 40, 14, 14]           13,736
│    └─InvResBlock: 2-8                            [2, 40, 14, 14]           --
│    │    └─Sequential: 3-5                        [2, 40, 14, 14]           55,340
│    └─InvResBlock: 2-9                            [2, 40, 14, 14]           --
│    │    └─Sequential: 3-6                        [2, 40, 14, 14]           55,340
│    └─InvResBlock: 2-10                           [2, 48, 14, 14]           --
│    │    └─Sequential: 3-7                        [2, 48, 14, 14]           21,486
│    └─InvResBlock: 2-11                           [2, 48, 14, 14]           --
│    │    └─Sequential: 3-8                        [2, 48, 14, 14]           28,644
│    └─InvResBlock: 2-12                           [2, 96, 7, 7]             --
│    │    └─Sequential: 3-9                        [2, 96, 7, 7]             91,848
│    └─InvResBlock: 2-13                           [2, 96, 7, 7]             --
│    │    └─Sequential: 3-10                       [2, 96, 7, 7]             294,096
│    └─InvResBlock: 2-14                           [2, 96, 7, 7]             --
│    │    └─Sequential: 3-11                       [2, 96, 7, 7]             294,096
├─Sequential: 1-3                                  [2, 576, 7, 7]            --
│    └─Conv2d: 2-15                                [2, 576, 7, 7]            55,296
│    └─BatchNorm2d: 2-16                           [2, 576, 7, 7]            1,152
│    └─Hardswish: 2-17                             [2, 576, 7, 7]            --
├─Squeeze_Excite: 1-4                              [2, 576, 7, 7]            --
│    └─AdaptiveAvgPool2d: 2-18                     [2, 576, 1, 1]            --
│    └─Sequential: 2-19                            [2, 576]                  --
│    │    └─Linear: 3-12                           [2, 144]                  83,088
│    │    └─ReLU: 3-13                             [2, 144]                  --
│    │    └─Linear: 3-14                           [2, 576]                  83,520
│    │    └─Hardsigmoid: 3-15                      [2, 576]                  --
├─AdaptiveAvgPool2d: 1-5                           [2, 576, 1, 1]            --
├─Sequential: 1-6                                  [2, 1000]                 --
│    └─Linear: 2-20                                [2, 1024]                 590,848
│    └─Hardswish: 2-21                             [2, 1024]                 --
│    └─Dropout: 2-22                               [2, 1024]                 --
│    └─Linear: 2-23                                [2, 1000]                 1,025,000
====================================================================================================
Total params: 2,703,846
Trainable params: 2,703,846
Non-trainable params: 0
Total mult-adds (M): 113.38
====================================================================================================
Input size (MB): 1.20
Forward/backward pass size (MB): 45.30
Params size (MB): 10.82
Estimated Total Size (MB): 57.32
…
